…
attention mechanism  compare revealing dark secrets bert paper   mention  question semantically meaningful without finetune   compare stackoverflow answer  ,Implementation Issues
How to remove layers in Huggingface&#39;s transformers GPT2 pre-trained models?,"My code: from transformers import GPT2Config, GPT2Model from transformers import AutoTokenizer, AutoModelForMaskedLM, AutoModelForCausalLM model = AutoModelForCausalLM.from_pretrained(""openai-community/gpt2"") print(decoder) Here is the output of the console, listing the model architecture: GPT2LMHeadModel( (transformer): GPT2Model( (wte): Embedding(50257, 768) (wpe): Embedding(1024, 768) (drop): Dropout(p=0.1, inplace=False) (h): ModuleList( (0-11): 12 x GPT2Block( (ln_1): LayerNorm((768,), eps=1e-05, elementwise_affine=True) (attn): GPT2Attention( (c_attn): Conv1D() (c_proj): Conv1D() (attn_dropout): Dropout(p=0.1, inplace=False) (resid_dropout): Dropout(p=0.1, inplace=False) ) (ln_2): LayerNorm((768,), eps=1e-05, elementwise_affine=True) (mlp): GPT2MLP( (c_fc): Conv1D() (c_proj): Conv1D() (act): NewGELUActivation() (dropout): Dropout(p=0.1, inplace=False) ) ) ) (ln_f): LayerNorm((768,), eps=1e-05, elementwise_affine=True) ) (lm_head): Linear(in_features=768, out_features=50257, bias=False) ) I want to remove the first layer: (wte): Embedding(50257, 768) I've tried the following way: def deleteEncodingLayers(model, num_layers_to_keep): # must pass in the full bert model oldModuleList = model.bert.encoder.layer newModuleList = nn.ModuleList() # Now iterate over all layers, only keepign only the relevant layers. for i in range(0, len(num_layers_to_keep)): newModuleList.append(oldModuleList[i]) # create a copy of the model, modify it with
…
Why does my transformer model have more parameters than the Huggingface implementation?,"I'm loading a GPT model from huggingface as follows: from transformers import AutoTokenizer, GPT2LMHeadModel, AutoConfig config = AutoConfig.from_pretrained( ""gpt2"", vocab_size=len(tokenizer), n_ctx=context_length, bos_token_id=tokenizer.bos_token_id, eos_token_id=tokenizer.eos_token_id, ) standard_gpt2 = GPT2LMHeadModel(config).to(device) standard_gpt2_model_size = sum(t.numel() for t in standard_gpt2.parameters()) print(f""GPT-2 size: {standard_gpt2_model_size/1000**2:.1f}M parameters"") # >>> GPT-2 size: 124.4M parameters If I print the model architecture I get: GPT2LMHeadModel( (transformer): GPT2Model( (wte): Embedding(50257, 768) (wpe): Embedding(1024, 768) (drop): Dropout(p=0.1, inplace=False) (h): ModuleList( (0-11): 12 x GPT2Block( (ln_1): LayerNorm((768,), eps=1e-05, elementwise_affine=True) (attn): GPT2Attention( (c_attn): Conv1D() (c_proj): Conv1D() (attn_dropout): Dropout(p=0.1, inplace=False) (resid_dropout): Dropout(p=0.1, inplace=False) ) (ln_2): LayerNorm((768,), eps=1e-05, elementwise_affine=True) (mlp): GPT2MLP( (c_fc): Conv1D() (c_proj): Conv1D() (act): NewGELUActivation() (dropout): Dropout(p=0.1, inplace=False) ) ) ) (ln_f): LayerNorm((768,), eps=1e-05, elementwise_affine=True) ) (lm_head): Linear(in_features=768, out_features=50257, bias=False) ) Focusing on the last layer -- lm_head , it has in_features=768, out_features=50257 So why when I replace just that one layer with the exact same number of parameters I get different results? standard_gpt2.lm_head = nn.Sequential( nn.Linear(in_features = 768, out_features = 50257, bias=False) ) standard_gpt2_model_size = sum(t.numel() for t in stan
…
 self.fc3 = nn.Linear(256,50000) def forward(self, x): x = torch.sin(self.fc1(x)) + torch.rand(1) x = torch.sin(self.fc2(x)) x = self.fc3(x) return x","['machine-learning', 'pytorch', 'nlp', 'huggingface-transformers', 'gpt-2']",2,"I'm assuming by the fully connected network you're referring to the Fully Connected (FC) / Linear layer. from transformers import AutoTokenizer, GPT2LMHeadModel, AutoConfig, GPT2Config configuration = GPT2Config() model = GPT2LMHeadModel(configuration) print(model) The above would show you the modules inside the model: GPT2LMHeadModel( (transformer): GPT2Model( (wte): Embedding(50257, 768) (wpe): Embedding(1024, 768) (drop): Dropout(p=0.1, inplace=False) (h): ModuleList( (0-11): 12 x GPT2Block( (ln_1): LayerNorm((768,), eps=1e-05, elementwise_affine=True) (attn): GPT2Attention( (c_attn): Conv1D() (c_proj): Conv1D() (attn_dropout): Dropout(p=0.1, inplace=False) (resid_dropout): Dropout(p=0.1, inplace=False) ) (ln_2): LayerNorm((768,), eps=1e-05, elementwise_affine=True) (mlp): GPT2MLP( (c_fc): Conv1D() (c_proj): Conv1D() (act): NewGELUActivation() (dropout): Dropout(p=0.1, inplace=False) ) ) ) (ln_f): LayerNorm((768,), eps=1e-05, elementwise_affine=True) ) (lm_head): Linear(in_features=768, out_features=50257, bias=False) ) You can now access and update the FC layer by: model.lm_head = nn.Sequential( nn.Linear(in_features = 768, out_features = 256), nn.ReLU(inplace = True), nn.Dropout1d(0.25), nn.Linear(in_features = 256, out_features = 128) ) The above is just a sample, you can experiment with different combinations.",2023-10-21 20:40:53,2023-10-22 10:06:05,364,http
…
